…
    "papermill": {
     "duration": 0.70791,
     "end_time": "2025-07-23T01:00:42.020797",
     "exception": false,
     "start_time": "2025-07-23T01:00:41.312887",
     "status": "completed"
    },
    "tags": []
   },
   "outputs": [
    {
     "name": "stdout",
     "output_type": "stream",
     "text": [
      "Using device: cuda\n"
     ]
    },
    {
     "data": {
      "text/plain": [
       "VisionEncoderDecoderModel(\n",
       "  (encoder): ViTModel(\n",
       "    (embeddings): ViTEmbeddings(\n",
       "      (patch_embeddings): ViTPatchEmbeddings(\n",
       "        (projection): Conv2d(3, 768, kernel_size=(16, 16), stride=(16, 16))\n",
       "      )\n",
       "      (dropout): Dropout(p=0.0, inplace=False)\n",
       "    )\n",
       "    (encoder): ViTEncoder(\n",
       "      (layer): ModuleList(\n",
       "        (0-11): 12 x ViTLayer(\n",
       "          (attention): ViTAttention(\n",
       "            (attention): ViTSelfAttention(\n",
       "              (query): Linear(in_features=768, out_features=768, bias=False)\n",
       "              (key): Linear(in_features=768, out_features=768, bias=False)\n",
       "              (value): Linear(in_features=768, out_features=768, bias=False)\n",
       "            )\n",
       "            (output): ViTSelfOutput(\n",
       "              (dense): Linear(in_features=768, out_features=768, bias=True)\n",
       "              (dropout): Dropout(p=0.0, inplace=False)\n",
       "            )\n",
       "          )\n",
       "          (intermediate): ViTIntermediate(\n",
       "            (dense): Linear(in_features=768, out_features=3072, bias=True)\n",
       "            (intermediate_act_fn): GELUActivation()\n",
       "          )\n",
       "          (output): ViTOutput(\n",
       "            (dense): Linear(in_features=3072, out_features=768, bias=True)\n",
       "            (dropout): Dropout(p=0.0, inplace=False)\n",
       "          )\n",
       "          (layernorm_before): LayerNorm((768,), eps=1e-12, elementwise_affine=True)\n",
       "          (layernorm_after): LayerNorm((768,), eps=1e-12, elementwise_affine=True)\n",
       "        )\n",
       "      )\n",
       "    )\n",
       "    (layernorm): LayerNorm((768,), eps=1e-12, elementwise_affine=True)\n",
       "    (pooler): ViTPooler(\n",
       "      (dense): Linear(in_features=768, out_features=768, bias=True)\n",
       "      (activation): Tanh()\n",
       "    )\n",
       "  )\n",
       "  (decoder): TrOCRForCausalLM(\n",
       "    (model): TrOCRDecoderWrapper(\n",
       "      (decoder): TrOCRDecoder(\n",
       "        (embed_tokens): TrOCRScaledWordEmbedding(50265, 1024, padding_idx=1)\n",
       "        (embed_positions): TrOCRLearnedPositionalEmbedding(514, 1024)\n",
       "        (layernorm_embedding): LayerNorm((1024,), eps=1e-05, elementwise_affine=True)\n",
       "        (layers): ModuleList(\n",
       "          (0-11): 12 x TrOCRDecoderLayer(\n",
       "            (self_attn): TrOCRAttention(\n",
       "              (k_proj): Linear(in_features=1024, out_features=1024, bias=True)\n",
       "              (v_proj): Linear(in_features=1024, out_features=1024, bias=True)\n",
       "              (q_proj): Linear(in_features=1024, out_features=1024, bias=True)\n",
       "              (out_proj): Linear(in_features=1024, out_features=1024, bias=True)\n",
       "            )\n",
       "            (activation_fn): GELUActivation()\n",
       "            (self_attn_layer_norm): LayerNorm((1024,), eps=1e-05, elementwise_affine=True)\n",
       "            (encoder_attn): TrOCRAttention(\n",
       "              (k_proj): Linear(in_features=768, out_features=1024, bias=True)\n",
       "              (v_proj): Linear(in_features=768, out_features=1024, bias=True)\n",
       "              (q_proj): Linear(in_features=1024, out_features=1024, bias=True)\n",
       "              (out_proj): Linear(in_features=1024, out_features=1024, bias=True)\n",
       "            )\n",
       "            (encoder_attn_layer_norm): LayerNorm((1024,), eps=1e-05, elementwise_affine=True)\n",
       "            (fc1): Linear(in_features=1024, out_features=4096, bias=True)\n",
       "            (fc2): Linear(in_features=4096, out_features=1024, bias=True)\n",
       "            (final_layer_norm): LayerNorm((1024,), eps=1e-05, elementwise_affine=True)\n",
       "          )\n",
       "        )\n",
       "      )\n",
       "    )\n",
       "    (output_projection): Linear(in_features=1024, out_features=50265, bias=False)\n",
       "  )\n",
       ")"
      ]
     },
     "execution_count": 2,
     "metadata": {},
     "output_type": "execute_result"
    }
   ],
   "source": [
    "import torch\n",
    "\n",
    "# Step 1: Check if GPU is available\n",
    "device = torch.device(\"cuda\" if torch.cuda.is_available() else \"cpu\")\n",
    "print(f\"Using device: {device}\")\n",
…
